…
  keras::layer_dense(units = custom_model$num_outputs, activation = 'softmax')

custom_model <- keras::keras_model(inputs = custom_model$model$input, 
								   outputs = new_outputs, 
								   name = "new_custom_model")
custom_model

```

```
#> Model: "new_custom_model"
#> ________________________________________________________________________________
#>  Layer (type)                       Output Shape                    Param #     
#> ================================================================================
#>  input_2 (InputLayer)               [(None, 9)]                     0           
#>  token_and_position_embedding_1 (To  (None, 9, 36)                  828         
#>  kenAndPositionEmbedding)                                                       
#>  transformer_block_1 (TransformerBl  (None, 9, 36)                  26056       
#>  ock)                                                                           
#>  global_average_pooling1d_1 (Global  (None, 36)                     0           
#>  AveragePooling1D)                                                              
#>  dropout_6 (Dropout)                (None, 36)                      0           
#>  dense_6 (Dense)                    (None, 64)                      2368        
#>  dropout_8 (Dropout)                (None, 64)                      0           
#>  dense_8 (Dense)                    (None, 11)                      715         
#> ================================================================================
#> Total params: 29,967
#> Trainable params: 29,967
#> Non-trainable params: 0
#> ________________________________________________________________________________
```

```{r}
# class of the model
custom_model %>% class
```
```
#> [1] "keras.engine.functional.Functional"                     
#> [2] "keras.engine.training.Model"                            
…
