…
Based on the train set we define the default transformer model, using `create_model()`.

```{r}
model <- split$train_df %>% create_model(name = "my_model") 
# pass arguments as ... that are applicable to keras::keras_model()

model # is a list 
```

```
#> Model: "my_model"
#> ________________________________________________________________________________
#>  Layer (type)                       Output Shape                    Param #     
#> ================================================================================
#>  input_1 (InputLayer)               [(None, 9)]                     0           
#>  token_and_position_embedding (Toke  (None, 9, 36)                  792         
#>  nAndPositionEmbedding)                                                         
#>  transformer_block (TransformerBloc  (None, 9, 36)                  26056       
#>  k)                                                                             
#>  global_average_pooling1d (GlobalAv  (None, 36)                     0           
#>  eragePooling1D)                                                                
#>  dropout_3 (Dropout)                (None, 36)                      0           
#>  dense_3 (Dense)                    (None, 64)                      2368        
#>  dropout_2 (Dropout)                (None, 64)                      0           
#>  dense_2 (Dense)                    (None, 6)                       390         
#> ================================================================================
#> Total params: 29,606
#> Trainable params: 29,606
#> Non-trainable params: 0
#> ________________________________________________________________________________
```

Some useful information and metrics are stored for tracebility and an easy extraction if needed.

```{r}
model %>% names() # objects from a returned list
…
